…
        wandb_vis=wandb_vis,
        log_interval=2,
        eval_interval=2,
        ckp_interval=2,
    )





.. rst-class:: sphx-glr-script-out

 .. code-block:: none

    The model has 2067779 trainable parameters
            23-10-24-10:10:03       [2/4]   loss=3.95e-02   Loss_sup=3.95e-02       Train_psnr_model=15.90  
            23-10-24-10:10:06       [4/4]   loss=9.59e-03   Loss_sup=9.59e-03       Train_psnr_model=21.33  

    ArtifactRemoval(
      (backbone_net): UNet(
        (Maxpool): MaxPool2d(kernel_size=2, stride=2, padding=0, dilation=1, ceil_mode=False)
        (Conv1): Sequential(
          (0): Conv2d(3, 64, kernel_size=(3, 3), stride=(1, 1), padding=(1, 1))
          (1): ReLU(inplace=True)
          (2): Conv2d(64, 64, kernel_size=(3, 3), stride=(1, 1), padding=(1, 1))
          (3): ReLU(inplace=True)
        )
        (Conv2): Sequential(
          (0): Conv2d(64, 128, kernel_size=(3, 3), stride=(1, 1), padding=(1, 1))
          (1): ReLU(inplace=True)
          (2): Conv2d(128, 128, kernel_size=(3, 3), stride=(1, 1), padding=(1, 1))
          (3): ReLU(inplace=True)
        )
        (Conv3): Sequential(
          (0): Conv2d(128, 256, kernel_size=(3, 3), stride=(1, 1), padding=(1, 1))
          (1): ReLU(inplace=True)
          (2): Conv2d(256, 256, kernel_size=(3, 3), stride=(1, 1), padding=(1, 1))
          (3): ReLU(inplace=True)
        )
        (Up3): Sequential(
          (0): Upsample(scale_factor=2.0, mode='nearest')
          (1): Conv2d(256, 128, kernel_size=(3, 3), stride=(1, 1), padding=(1, 1))
          (2): ReLU(inplace=True)
        )
        (Up_conv3): Sequential(
          (0): Conv2d(256, 128, kernel_size=(3, 3), stride=(1, 1), padding=(1, 1))
          (1): ReLU(inplace=True)
          (2): Conv2d(128, 128, kernel_size=(3, 3), stride=(1, 1), padding=(1, 1))
          (3): ReLU(inplace=True)
        )
        (Up2): Sequential(
          (0): Upsample(scale_factor=2.0, mode='nearest')
          (1): Conv2d(128, 64, kernel_size=(3, 3), stride=(1, 1), padding=(1, 1))
          (2): ReLU(inplace=True)
        )
        (Up_conv2): Sequential(
          (0): Conv2d(128, 64, kernel_size=(3, 3), stride=(1, 1), padding=(1, 1))
          (1): ReLU(inplace=True)
          (2): Conv2d(64, 64, kernel_size=(3, 3), stride=(1, 1), padding=(1, 1))
          (3): ReLU(inplace=True)
        )
        (Conv_1x1): Conv2d(64, 3, kernel_size=(1, 1), stride=(1, 1))
      )
    )



.. GENERATED FROM PYTHON SOURCE LINES 175-180

Test the network
--------------------------------------------
We can now test the trained network using the :meth:`deepinv.test` function.

The testing function will compute test_psnr metrics and plot and save the results.

.. GENERATED FROM PYTHON SOURCE LINES 180-194

.. code-block:: default
…
